…
wnloading data from https://storage.googleapis.com/tensorflow/keras-applications/inception_v3/inception_v3_weights_tf_dim_ordering_tf_kernels_notop.h5\n87916544/87910968 [==============================] - 1s 0us/step\nModel: \"model\"\n_________________________________________________________________\nLayer (type)                 Output Shape              Param #   \n=================================================================\ninput_2 (InputLayer)         [(None, 224, 224, 3)]     0         \n_________________________________________________________________\ninception_v3 (Functional)    (None, 5, 5, 2048)        21802784  \n_________________________________________________________________\nglobal_average_pooling2d (Gl (None, 2048)              0         \n_________________________________________________________________\nflatten (Flatten)            (None, 2048)              0         \n_________________________________________________________________\ndense (Dense)                (None, 256)               524544    \n_________________________________________________________________\nactivation_94 (Activation)   (None, 256)               0         \n_________________________________________________________________\ndropout (Dropout)            (None, 256)               0         \n_________________________________________________________________\ndense_1 (Dense)              (None, 2)                 514       \n_________________________________________________________________\nactivation_95 (Activation)   (None, 2)                 0         \n=================================================================\nTotal params: 22,327,842\nTrainable params: 22,293,410\nNon-trainable params: 34,432\n_________________________________________________________________\nNone\n","output_type":"stream"}]},{"cell_type":"code","source":"my_callbacks,d_class_weights","metadata":{"execution":{"iopub.status.busy":"2024-06-18T07:49:26.665642Z",
…
